tflite_gender_classifier.tflite (tflite, 6232 bytes, 5 tensors)

conv2d_5/bias f4 [16]
00000000: c3c9 413d 6608 273e a436 f43b 9a35 303e
00000010: 3ba2 00be df41 963d c074 923e 9ff2 9e3d
00000020: a48b 193e 7a2b 063e 58ac 113e 38c2 763e
00000030: df75 16be 44d9 3c3d a765 843d f829 023e
0.047311556 0.16311797 0.0074528027 0.17207947 -0.12561886 0.07336783 0.28604698 0.0776112
0.14994675 0.13102522 0.142259 0.24097526 -0.14693402 0.04610564 0.06464701 0.12711322

conv2d_4/bias f4 [8]
00000000: 15e0 ad3d 0210 cd3f 2b12 0a3f 8570 a03f
00000010: 7e03 0dbe 66dc b9be b5f2 503e 23c4 0bbf
0.08490006 1.602051 0.5393397 1.2534338 -0.13770863 -0.36300963 0.20405085 -0.54596156

model_2/dense_2/MatMul f4 [1, 256]
00000000: 1a68 76bd 42d2 bcbd d9b2 0dbc 7f4e c9bd
00000010: 7d94 23bd f0c8 dd3c f9b5 26bd 09cf 3f3d
00000020: 64a5 3e3d 8de0 f13c 3360 4ebe 3f04 8cbe
00000030: 1f7a 173d 2059 16be 6a2a 733d 050f f2bd
00000040: 43b7 723c fc97 09be 8666 9f3d 9413 a2bc
00000050: 70f7 b93d 9bbd 193d 8a4b c3bd 8d72 19bc
00000060: 454c 43bd 3c56 9b3d f21c 163c 6c6e 613e
00000070: 6e46 e93c 9f53 91bd 672e 8b3c 7b3b e73d
00000080: a012 d9bd 3273 5fbd 288d af3d bef3 bb3c
00000090: d956 40bb 545c 4dbd fff7 c4bd 14fb 6bbd
000000a0: 08e3 8b3d a84a ac3d 96b8 903d 91cd 27be
000000b0: 7f54 5f3d 4973 8abc 781c 843b bc82 7b3e
000000c0: 458f 9abd 770f 683d ede8 3cbd de62 30bd
000000d0: b3e7 10be de74 e5bb f25f 63bd d8ff febc
000000e0: 1a41 893d 2355 b43d 3de4 0dbe 960d 973d
000000f0: c7f1 a53d b5a6 863b a85d 473c dc9d adbd
00000100: 20c0 dabd eb10 afbd 8e59 99bd 8104 c63d
00000110: e7ac cfbd 8635 763c 911b 493e fda2 b9bd
00000120: cd4d febd c343 723d ee63 573b dd1b 12be
00000130: 60c5 86bd edb0 2ebe 860f 3a3a 56b4 3cbe
00000140: 8d9c 0e3d 944d 073e 2ea8 0bbe 8adf 33bd
00000150: 7b95 943c bce0 05be 6e55 e73d 81c4 2b3b
00000160: 1ef3 19be 83c5 23bd 69f5 503d e024 87bd
00000170: 965c 76be fdce c5be 77e9 b43c cc33 c1bc
00000180: b47b 72bd 9767 073e cfb4 7bbd 3b5a 02bb
00000190: 613f 063d 5ab2 c2bd 7d04 893d 8bc3 933c
000001a0: 6713 193d 7501 5fbd 00f2 823d 6d1e 1dbd
000001b0: ec64 79bb f827 2d3e c1b1 99bd e100 8e3e
000001c0: 00ea b43d fe43 ca3d 22e7 09be 9e28 2d3d
000001d0: 60a4 0b3d 45eb 22be 21e1 f03d 62bf f1bd
000001e0: 7a7c 613e 7a68 0d3d afb0 abbd 643e 153e
000001f0: d89a 303d eca7 b0be 8ec1 99bd b4c7 f2bd
00000200: 923b b0bd 6dc2 303d 2a74 0d3c 0589 923c
00000210: 49a2 b33d 1196 58bd 649a c93c c008 4bbd
00000220: ebc6 c0bb cb11 48bd 8779 8f3d e793 1cbe
00000230: 01b8 b43c c864 d1be cb53 683d dfd1 22bd
00000240: 1b98 0f3d 9760 90bd 541d 88bc a314 bcbb
00000250: 10b9 d23b 0c94 bb3c d04a 453c 1309 e3bd
00000260: bd92 b4bc 5d29 77bb 8db9 b83d d8a2 0d3d
00000270: b4d8 d2bc a9f2 30be d14d eebc 09c7 7abd
00000280: 6064 e33c 1b2b 2cbd ea1d 97bc 2572 6bbd
00000290: 0bac fbbb fd3c bf3d c068 1e3c e50e 853e
000002a0: aa2b bc3c bb6f 33be 02a2 ed3d e9ca 04be
000002b0: 502c b5bd 319a 8ebe dceb f1bb 801c 1e3e
000002c0: e19a 3e3c 93ad 1f3d 7d64 c73d 8032 35bd
000002d0: 21fc 5abc c912 04bd 169d 70bd b3cd 173e
000002e0: b1a4 8e3d c033 f3bd 876c 413d 2322 d3bd
000002f0: 3d49 aa3d 8a0d 11bf 44c8 5e3b 4907 50bd
00000300: 0600 c4bc 2144 3d3d 6131 a1bc 9296 273b
00000310: 991e 213d a9e5 aebc ecae 3cbd 7cf8 b3bc
00000320: d6c7 943c 2206 35bd ad97 c33c b21a 393b
00000330: 3a71 42bd b06a e3bd e88c 8dbb 962e 7fbd
00000340: b992 983c 3b67 c13c e575 ddbc 3dd1 44bb
00000350: f664 af3d 5e37 c33c c82d a93d 1955 bdbd
00000360: d107 6e3d 497a 91ba 3ab8 8d3e 5640 1e3e
00000370: 65b5 0abe 2116 b23d bfa2 643d de48 9dbe
00000380: 3898 91bc a3a6 5d3c 2a40 a03d 283f 5fbd
00000390: 1f00 13be 707c c23d 967e c33c 651f 883c
000003a0: af22 e8bd 710c 2f3e 9a01 643e 8fe2 36be
000003b0: 0c39 ccbc e1b9 8bbe d92c e63c 1264 a4bd
000003c0: cd85 d83d cdc5 cc3c 4bc0 02bd c179 453c
000003d0: b616 e73d a4c6 19bc d2a0 b5bb 74f7 3cbd
000003e0: a7f3 203c 144f 22bd 72f6 993c 3ce5 fd3c
000003f0: 8b82 c5bd 9a17 333e 8ad7 503c b9ce e4bd
-0.060157873 -0.09219791 -0.008648598 -0.09829425 -0.03993653 0.027073354 -0.040700886 0.046828303
0.046544448 0.02952602 -0.20153885 -0.2734699 0.036981698 -0.14682436 0.05936662 -0.11819271
0.014814201 -0.13436884 0.07783227 -0.019784726 0.09080398 0.037534337 -0.09535892 -0.00936569
-0.04768016 0.07584807 0.009162175 0.22014779 0.028475966 -0.070960276 0.0169899 0.11290642
-0.105992556 -0.05455322 0.08571845 0.022943374 -0.002934864 -0.05013688 -0.09617614 -0.057612494
0.06830412 0.08412677 0.07066457 -0.16387011 0.05452394 -0.016900675 0.004031714 0.2456159
-0.07546858 0.056655373 -0.046120573 -0.043063037 -0.14150886 -0.007002457 -0.055511422 -0.031127855
0.0670187 0.08805301 -0.13856597 0.07375638 0.08102756 0.0041092285 0.0121683255 -0.08477375
-0.10681176 -0.08548149 -0.07487784 0.09668828 -0.101404004 0.015027409 0.19639422 -0.09064291
-0.12417183 0.059146654 0.003286596 -0.14268441 -0.06580615 -0.1705968 0.000709765 -0.18428168
0.034817267 0.13213187 -0.13638374 -0.043914355 0.018137684 -0.1307401 0.11295591 0.0026209655
-0.15034148 -0.039983284 0.05101529 -0.0659883 -0.24058756 -0.38634482 0.022083981 -0.023584269
-0.059200004 0.1322311 -0.06145173 -0.0019890207 0.032775287 -0.09506674 0.06690309 0.018037578
0.03737202 -0.05444475 0.06393814 -0.038359094 -0.003805454 0.16909778 -0.07504607 0.27735046
0.088336945 0.0987625 -0.13467076 0.042275064 0.034092307 -0.1591006 0.1176169 -0.118040815
0.2202014 0.034523465 -0.08383309 0.14574581 0.04311642 -0.34503114 -0.07507621 -0.118544966
-0.08605112 0.04315417 0.008633653 0.017887602 0.08771188 -0.05287749 0.024609752 -0.04956889
-0.005883088 -0.048845094 0.070056014 -0.15290795 0.022060396 -0.40897202 0.056720536 -0.03975093
0.03505717 -0.07049673 -0.016615547 -0.005739765 0.0064307526 0.022897743 0.0120417625 -0.11085715
-0.022042627 -0.0037713863 0.09019766 0.034579128 -0.025738098 -0.17280068 -0.02908984 -0.06122497
0.027757823 -0.042033296 -0.018446881 -0.057481904 -0.007680421 0.093378045 0.009668529 0.25987926
0.02297004 -0.1752309 0.11603166 -0.12968029 -0.088463426 -0.27852014 -0.007382853 0.1544056
0.011633606 0.038983893 0.097359635 -0.044237614 -0.013365776 -0.032244477 -0.05874356 0.14824562
0.06965006 -0.11875105 0.04722264 -0.103092454 0.0831475 -0.56661284 0.003399388 -0.050788198
-0.023925792 0.04620755 -0.019676866 0.0025571925 0.03933582 -0.021349745 -0.046065256 -0.021969073
0.018161695 -0.0441953 0.023876036 0.0028244671 -0.047471263 -0.111043334 -0.004319776 -0.062300287
0.01862465 0.023608794 -0.027033756 -0.0030031942 0.08564179 0.023830112 0.08260685 -0.09244747
0.058112923 -0.0011099066 0.27679616 0.1545423 -0.13545759 0.08695627 0.05581927 -0.30719656
-0.017772779 0.013528499 0.07824738 -0.05450359 -0.14355515 0.09496391 0.023864072 0.016616533
-0.1133474 0.1709459 0.22266236 -0.17859863 -0.024929546 -0.27290252 0.028097557 -0.080268994
0.105723955 0.024996663 -0.031921666 0.012052954 0.11283629 -0.0093857385 -0.005542853 -0.046134427
0.009823716 -0.039626196 0.018794272 0.030993097 -0.0964404 0.17489472 0.012746701 -0.11172242

model_2/conv2d_4/Conv2D f4 [8, 4, 4, 1]
00000000: 7715 e7bc eb9a 0d3e 5dbf b43b 92ab fc3d
00000010: e7e7 28be a5b7 df3d db04 ea3d 5159 91bd
00000020: f764 9a3d 1ed3 42bd 01d9 b9bd 5b1d 963d
00000030: a1a1 113c f83a e03d 6933 85bd fd85 ffbd
00000040: 8104 9a3c 02ed 46be 5f3d edbd 09a0 a9bd
00000050: 5f9e 03be da65 6e3d 85eb 933d 6c79 cdbd
00000060: b25a 0abe 02a4 2a3e 2c11 e23d 4780 7dbd
00000070: 303a 14be 819e 8f3e b116 72bd 45f1 b1bb
00000080: 2631 f0bc c2aa fcbd fa42 e73d e6bc febd
00000090: 4f02 dd3d d1b9 99bd 0e83 d43d 9d1e 3c3d
000000a0: a757 153e 28a5 3fbd 37f1 f5bd 3de6 b73d
000000b0: b8c3 203b f846 c7bc 12c7 bbbc 4b9d 9a3d
000000c0: 6edc 3cbe 5f2f 3a3d 0587 ca3d 99cb 133e
000000d0: 2f3c f5bd c840 d0bd 93b2 ec3d 036a 143e
000000e0: be22 c7ba 4dfa 483d 13a4 a7bb 1dab 143d
000000f0: e27a 2cbd d7ef 0bbe 8573 aabd 6a38 7cbc
00000100: 2c3f 4f3c 79d3 5f3d 85ac 5d3d c851 8a3d
00000110: 71e2 253d f4c5 bcbc 1c02 aabd 41b0 9c3d
00000120: c8bf e7bd 4188 fdbc 0b9d 41be 718f 10be
00000130: 5385 8fbd 25e8 6ebd 2322 7dbe 1c25 5d3e
00000140: dfb1 7bbe e205 fa3d af9d 053e fea2 4abc
00000150: 80c0 49be 16bb 0f3d 186d 3d3e 5ad9 b5bb
00000160: 4023 8e3d 8685 12be 2db3 debd 6661 d73d
00000170: b8bf b0bd a2d3 133b 3fb1 253e deb2 febc
00000180: 30e1 f9bc 64a2 28be 25b2 023e 5db0 30bd
00000190: 6cad 90bd 08fd 16be 15e3 d2bd 4259 543c
000001a0: ae44 673d 48ae 33bd a14a 0cbe 59cb aabd
000001b0: 87f0 493e e4de 8d3c 9e86 773d f4a4 483e
000001c0: 0dc3 56be f58f 9c3d fe5e 433e a498 38bb
000001d0: d0f7 31be 485e cd3d 8765 2fbe af9a 9bbd
000001e0: 3b92 db3d b152 453e d275 35be 6a6d f9bd
000001f0: c655 e73d a37f 72bd 7154 0d3e 6507 be3d
-0.028208477 0.13828628 0.0055159763 0.12337412 -0.16494714 0.10923699 0.11426707 -0.07097114
0.07538789 -0.04756462 -0.09074593 0.07329818 0.008888633 0.109487474 -0.06503946 -0.12476728
0.018800976 -0.19426349 -0.11583971 -0.082824774 -0.12853383 0.058202602 0.07222656 -0.10032925
-0.1351116 0.16664127 0.110384315 -0.061889913 -0.14475322 0.28050616 -0.05910367 -0.005430373
-0.02932031 -0.12337257 0.11292072 -0.12438373 0.10791456 -0.07506145 0.10376559 0.045927633
0.14584218 -0.046788365 -0.12008899 0.08979461 0.002453072 -0.024325833 -0.022922073 0.075495325
-0.18443462 0.045455333 0.09889034 0.14433135 -0.1197437 -0.10168606 0.11557498 0.14493565
-0.0015192849 0.04906683 -0.0051159947 0.036296 -0.042109378 -0.1366571 -0.08322815 -0.01539431
0.012649339 0.054645035 0.054119606 0.0675388 0.040499154 -0.02304361 -0.083011836 0.07650805
-0.11315876 -0.03094876 -0.18907563 -0.14117219 -0.070078515 -0.05832686 -0.24720053 0.21596187
-0.24579571 0.12208153 0.13048433 -0.012367962 -0.19702339 0.03509053 0.18498647 -0.005549592
0.06940317 -0.14308748 -0.10874019 0.10516624 -0.086303174 0.0022556563 0.16180895 -0.03109115
-0.030502886 -0.16468197 0.12763269 -0.043136943 -0.070643276 -0.14744961 -0.10297219 0.012960734
0.056461982 -0.04386738 -0.13700344 -0.08339567 0.1972066 0.017318197 0.060431115 0.19594175
-0.20972843 0.07644645 0.19079205 -0.0028167153 -0.17379689 0.10027748 -0.17128573 -0.07597863
0.107212506 0.19269826 -0.17720726 -0.12179072 0.11295657 -0.059203755 0.13801743 0.09278754

model_2/conv2d_5/Conv2D f4 [16, 2, 2, 8]
00000000: 0fc2 51be 4c8a 28bd 4553 0b3d 1509 8f3c
00000010: 97d2 d8bd 0317 ba3d 120c 13be 7c45 8b3d
00000020: 30d3 593e df8d 8b3b fc55 52bd 99ae 95bd
00000030: 7ff0 953d fbd0 893d bfd6 8d3e 2dda bcbc
00000040: a29e 4ebc bdc8 74be 9683 073e 7cf0 6ebd
00000050: b8fd 443d 56ed 76be 8796 033e 7804 cc3c
00000060: 7f05 1f3e 3251 b5bc 3b2a 82bd be49 df3d
00000070: d760 53be 847d 94be 05ea 833d a4d7 69bd
00000080: 4f67 50be a86d d33d 1827 4abd 3bcf 443e
00000090: 06ac 15be 5e53 863b 1883 67bd 7c91 2f3e
000000a0: e067 42be 0f75 62be 7edd b13a af73 8f3e
000000b0: ce8a cfbd 76d3 b0bd 75dc 923d 41f8 95be
000000c0: 1ff4 68bc de19 1cbb 5c65 173e 87de d93b
000000d0: f432 08be 2a66 0a3c a979 653b 2ac6 343c
000000e0: d544 ef3d fb1c 47bc 3423 523e f5b4 1cbe
000000f0: 1688 bf3d 0625 053c c825 e4bd 14db f4bd
00000100: 6e3a b13d a56d bdbd a521 a43b 47ee 053c
00000110: e549 203e c2f7 51be d384 61be bf08 7d3d
00000120: 62e4 59be 83de a23e 74d5 a93d 7c73 b23d
00000130: 7573 163e 7fcb 243d 3661 14be 1b36 dbbd
00000140: a83a d03d c0d9 923e 7ec7 353e c22f 023e
00000150: 2988 8bbc 8c85 97bc 51c0 66bd 39bb 7cbe
00000160: e8c0 49be 92ac d2bc ad46 083e 26a1 393d
00000170: 5a82 603e 0107 d93d 21c7 a0bc 4927 1dbe
00000180: eb3f 8abd d23e 4f3d 54fc 0e3d a7cb 80bb
00000190: 2417 08be 4f78 07be dde1 1a3e 2e5d bd3d
000001a0: 55a2 04be f244 3c3e 02ab 8cbd 3d99 b13e
000001b0: 4556 c4bd 148c 3f3c f902 a93d 1a58 03be
000001c0: a6bd 173e 941c 9ebd d81a 20be 5b5c f83b
000001d0: 7cc2 0abe cb5e da3d 278f edbd 8936 10be
000001e0: 981b b23d 474d 68be 652e 0e3e 55c2 f2bd
000001f0: 9a45 fcbe 05b3 39be 1fcd 8c3c a135 0a3c
00000200: a2df 263c d290 85be f95c 49be 42d1 bc3a
00000210: 62b3 82be 94a8 8abe 5199 203d efbb 5fbc
00000220: 6b5a afbd 0a59 f13d c1e7 23be 4b47 043d
00000230: 4d48 cebc b73b 2fbe 90d7 3bbd 39cf b8bd
00000240: 2322 41be 8676 2b3e e42f 0abe 1f3f 52be
00000250: 34e4 03be 5405 d6bd 3bf4 993d 4ccc 133e
00000260: 69cd 153e f8c2 85bb 72e9 693d f266 7bbe
00000270: 5879 133e ca0c f83d b4ea 47bd 460f 5ebe
00000280: 0c7d 88bd d161 513e 5164 863d 7e4c 393d
00000290: 4993 b23e 43d0 81bc ec36 51bd 5002 c13d
000002a0: 2338 d1bb 447d 883d 6232 f1bc 68f1 503d
000002b0: bf4c 6ebe 10e7 49be bc1a 7ebe cd71 b63d
000002c0: 1ba7 d33d 488f d73c 0478 0dbd 2347 b8bc
000002d0: 502c 153e d771 ef3c b138 713c 334e 4d3d
000002e0: ed16 453e c3eb 82be cbf1 52be 2a31 c4bd
000002f0: e136 23bb c10e 16be 2afb 22be 3759 debd
00000300: 3e07 723d feef a3be 65e5 a23d abdb 38be
00000310: def6 d33d 4f0f 57bd cc85 89be cafc 873e
00000320: 6858 b0bb d50c 563d 2df6 043e c7cd 2c3d
00000330: 9b83 a63c fab5 f4bd ce5a 50bd ceec 0e3e
00000340: beec e5bd 02aa 283e e614 99bd b80d 5e3e
00000350: f834 5bbe 30d0 8bbd ec97 193e 6607 54be
00000360: 2e00 95bd 3945 b03e 2e79 adbd c543 973e
00000370: ba89 0dbe bf48 b3bd 1c7b 30bd e3a6 94bd
00000380: be97 4fbe c6b2 46be 134f 1bbe d998 313e
00000390: 99ad b4bd 1732 01bc 3218 e7bd 5dae 8fbd
000003a0: eb0d 0abe cad6 3d3e 4f2d 743e 663b a03e
000003b0: 601e 553c e74d 2cbe 8c2a 8b3d b4ca 843d
000003c0: cb09 4dbd 6142 cabe cc42 1fbd e806 85be
000003d0: fcb6 0ebd 8678 fcbd 3ce3 0abe ebf3 0c3d
000003e0: 2ce9 19be 2e85 00be 650f 7fbe f17c b8bd
000003f0: c2ce bebd 4420 bd3d 94e8 d33d 9a18 453e
-0.20484184 -0.041147515 0.03401496 0.017460385 -0.10587042 0.090864204 -0.14360073 0.068003625
0.21271968 0.0042588557 -0.051351532 -0.073086925 0.073212616 0.06729313 0.277029 -0.023053253
-0.012611063 -0.239047 0.1323379 -0.058334813 0.048093528 -0.24113974 0.1285039 0.024904475
0.1552944 -0.022133444 -0.06355711 0.10902737 -0.2064241 -0.2900201 0.0644112 -0.057090417
-0.20351909 0.1032365 -0.04935369 0.19219677 -0.14616403 0.0040992936 -0.056521505 0.17145342
-0.18984938 -0.22114967 0.0013570038 0.28017947 -0.10133897 -0.08634083 0.07170955 -0.29290965
-0.014218359 -0.002381913 0.1478476 0.006648842 -0.13300687 0.008447209 0.0035015142 0.011033574
0.116830505 -0.012152906 0.20521241 -0.15303405 0.09352128 0.008126503 -0.11140019 -0.11955848
0.08653723 -0.09249429 0.0050088936 0.0081744855 0.15653189 -0.20504668 -0.22023325 0.06177592
-0.21278527 0.31810388 0.08292666 0.08713433 0.14692481 0.04023313 -0.14490208 -0.10703679
0.10167438 0.28681755 0.17751881 0.1271353 -0.0170327 -0.018496297 -0.05633575 -0.24680795
-0.19702494 -0.025717054 0.1330821 0.0453197 0.21924725 0.10597039 -0.019626202 -0.15347017
-0.06750473 0.05059702 0.034908608 -0.0039305273 -0.13290077 -0.13229488 0.15125223 0.09246288
-0.1295255 0.18385676 -0.06868555 0.34687224 -0.09586767 0.011691112 0.0825252 -0.12826577
0.14818439 -0.077202946 -0.1563524 0.007579369 -0.13550752 0.106626116 -0.1159957 -0.14083304
0.08696669 -0.22685729 0.13884886 -0.11853472 -0.49271852 -0.18134697 0.017187653 0.008435638
0.010185154 -0.26087052 -0.19664373 0.0014405625 -0.25527483 -0.2708174 0.039208714 -0.013655647
-0.08562168 0.11784561 -0.16006376 0.032294553 -0.02518096 -0.17112623 -0.045859873 -0.090238996
-0.18860678 0.16744432 -0.13494831 -0.20531891 -0.12880021 -0.10450235 0.075172864 0.14433402
0.14629139 -0.00408208 0.057107396 -0.2455099 0.14401758 0.12111814 -0.048807815 -0.21685514
-0.06664476 0.2044747 0.065621026 0.045238964 0.34877995 -0.015846377 -0.05107777 0.09424269
-0.006384866 0.066645175 -0.02944297 0.051011473 -0.23271464 -0.1971705 -0.24814886 0.089084245
0.10334607 0.026313439 -0.034538284 -0.022494858 0.14567685 0.029229088 0.014722989 0.050123405
0.19247027 -0.25570497 -0.20600049 -0.0957969 -0.0024904537 -0.14654066 -0.15916124 -0.1085686
0.059088938 -0.32019037 0.0795391 -0.18052547 0.103498206 -0.052504834 -0.2685989 0.2656005
-0.0053816326 0.05225833 0.12984534 0.042188432 0.020326426 -0.11948772 -0.050867848 0.13957521
-0.112267956 0.16471103 -0.07474689 0.21684921 -0.21406925 -0.06826818 0.1499936 -0.20705947
-0.07275425 0.34427813 -0.08470379 0.29543892 -0.1382207 -0.087541096 -0.043086156 -0.072583936
-0.20272729 -0.19404134 -0.15166883 0.17343463 -0.088221736 -0.0078854775 -0.11283912 -0.07015679
-0.13481872 0.18538967 0.23845409 0.31295317 0.01300773 -0.16826592 0.067952245 0.06483975
-0.050058167 -0.39503768 -0.03888206 -0.25981832 -0.034842476 -0.123276755 -0.13563246 0.034412306
-0.15030354 -0.12550804 -0.24908216 -0.09008206 -0.0931678 0.0923467 0.10347095 0.19247666
